last_brain.pth (torch, 688747 bytes, 30 tensors)

fc1.weight f4 [195, 65]
0	0x3c8198a6	0.015819859
1	0x3d6ddec1	0.058073763
2	0x3e10843d	0.14112945
3	0xbda580c8	-0.08081204
4	0x3e02a06f	0.12756513
5	0xbd8c1fcf	-0.068420045
6	0x3d45be3f	0.048277136
7	0x3d8a914b	0.06765994
8	0xbccebf0c	-0.025237583
9	0x3dfb8ea4	0.12283066
10	0x3d6e2859	0.058143947
11	0xbcb0fcb8	-0.02160488
12	0xbc28f119	-0.010311388
13	0x3da0b6d6	0.07847373
14	0x3de5fde6	0.11230068
15	0x3de6ee86	0.112759635
16	0x3caebe0f	0.021330861
17	0xbcac3702	-0.021022324
18	0x3ddc9fbb	0.10772654
19	0x3e04df4f	0.1297581
20	0xbd0efded	-0.03491013
21	0x3e157a6c	0.14597481
22	0x3d9e5df9	0.077327676
23	0xbd531dfb	-0.051542263
24	0x3d7f6d7e	0.06236028
25	0x3d4fb318	0.050707906
26	0xbd1d45ff	-0.03839683
27	0x3c965100	0.01834917
28	0x3cd7c2ab	0.026337942
29	0x3e18cd47	0.14922057
30	0xbdaba349	-0.083807535
31	0xbc4e308f	-0.012584819
32	0xbd39108e	-0.045181803
33	0x3d64af71	0.055831376
34	0x3c6cda55	0.014456351
35	0x3d07a6a0	0.03311789
36	0x3d754890	0.059883654
37	0x3c829290	0.015939027
38	0x3de3cf47	0.111235194
39	0x3de80db8	0.11330742
40	0xbb1b1444	-0.0023663202
41	0x3e1264d1	0.14296271
42	0x3b30671d	0.002691693
43	0xbd9a34cf	-0.07529604
44	0x3d9a8b8e	0.07546149
45	0x3d6f697c	0.058450207
46	0x3dfd1f66	0.123595044
47	0xbd4922c0	-0.049105406
48	0x3d86e258	0.065861404
49	0xbc45a442	-0.012063088
50	0x3d8ed171	0.069735415
51	0x3dc3666e	0.09541021
52	0xbdb39892	-0.08769335
53	0xbd98cbdc	-0.07460758
54	0xbd99cbe5	-0.07509593
55	0xbc984981	-0.018589737
56	0x3df13197	0.11777037
57	0xbc606663	-0.013696286
58	0xbd9cb0b8	-0.07650894
59	0x3e12b1c0	0.14325619
60	0x3d58dba0	0.052943826
61	0x3c870c2b	0.016485294
62	0xbc0aafb1	-0.00846474
63	0x3d557d91	0.052121703
64	0x3c2bfa17	0.010496638
65	0x3dddf467	0.10837632
66	0x3d77501b	0.06037913
67	0x3daac05e	0.083374724
68	0xbdf6c57a	-0.120493844
69	0x3b4b60fc	0.003103315
70	0x3bd954a5	0.006632405
71	0x3dbd3ca4	0.09240082
72	0x3d9c6bc7	0.076377444
73	0x3c4cca56	0.0124994125
74	0xbc0856f7	-0.008321515
75	0x3da93ed7	0.08263939
76	0x3de369e6	0.11104183
77	0x3d2d719e	0.042344682
78	0xbe062f00	-0.13103867
79	0x3dd8957d	0.105753876
80	0xbda5b6bc	-0.080914944
81	0xb812784b	-3.4921144e-05
82	0xbddba466	-0.10724716
83	0x3de3ff68	0.11132699
84	0xbddb2250	-0.10699904
85	0x3ca8e77b	0.020618191
86	0xbcf07d4c	-0.029356621
87	0xbd345655	-0.044027645
88	0xbceb6c29	-0.028738098
89	0xbd20b72f	-0.039237197
90	0xbe034f65	-0.12823255
91	0x3cb81c3e	0.022474404
92	0xbdc4d365	-0.09610633
93	0x3b80c860	0.0039301366
94	0xbd6cf6df	-0.057852622
95	0x3dbdbad5	0.09264151
96	0x3dc08c76	0.09401791
97	0x3de83eb2	0.11340083
98	0x3d385124	0.044999257
99	0x3bbc0429	0.0057378006
100	0x3d1e1304	0.038592353
101	0x3b8029a6	0.003911215
102	0xbe085945	-0.13315304
103	0xbdf04244	-0.11731389
104	0xbd548e71	-0.051893655
105	0x3da8f4ab	0.08249792
106	0x3dc9f4eb	0.098611675
107	0xbdffc4eb	-0.12488731
108	0xbccd9a4e	-0.025097992
109	0xbdd1373a	-0.10215612
110	0xbdf232ed	-0.118261196
111	0x3dcf24d0	0.10114443
112	0x3af33fdc	0.001855846
113	0xbdec9267	-0.115513615
114	0xbca49e4a	-0.02009501
115	0xbd5d957c	-0.054097638
116	0x3b7983ee	0.003807302
117	0xbd8f0c48	-0.06984764
118	0xbbccc088	-0.0062485375
119	0x3d2bf7c2	0.041984327
120	0x3ca5e08c	0.020248674
121	0xbdedd395	-0.11612622
122	0x3d0f6b65	0.03501453
123	0xbdf067ac	-0.11738524
124	0x3ce6b0b1	0.028160425
125	0x3dc51239	0.09622616
126	0xbdaacd1a	-0.08339901
127	0xbbbf8be4	-0.0058455337
128	0xb9c3e1bc	-0.00037361484
129	0x3da93bea	0.08263381
130	0x3d9caadd	0.07649777
131	0x3d47f95a	0.048821785
132	0x3d85ae95	0.065274395
133	0x3e0e7e45	0.13915356
134	0x3c60a132	0.013710307
135	0x3daa54e1	0.083169706
136	0xbd765652	-0.060140915
137	0x3dbc10e9	0.09182913
138	0xbd96d45f	-0.07364725
139	0x3dbe0933	0.09279098
140	0x3c72ed2c	0.014827054
141	0x3ded91ac	0.1160005
142	0x3e11c522	0.14235356
143	0x3deec600	0.11658859
144	0x3dc53b1a	0.09630413
145	0x3debf9e6	0.11522274
146	0x3da5c49c	0.08094141
147	0x3e1419bb	0.1446294
148	0x3d1bfe88	0.038084537
149	0x3da85718	0.08219737
150	0x3d2e1f9c	0.042510614
151	0x3db1df0c	0.08685121
152	0x3e131665	0.14364012
153	0x3deec485	0.11658577
154	0x3e0c0730	0.13674617
155	0xbda59493	-0.08084979
156	0xbd76f0f0	-0.06028837
157	0x3dab494c	0.0836359
158	0xbd700ec6	-0.05860784
159	0xbc9d04a9	-0.019167261
160	0xbbda51cf	-0.0066625844
161	0x3bb783c0	0.0056004226
162	0x3d9bbd62	0.07604481
163	0xbd37e2d1	-0.044894043
164	0xb92a09b6	-0.00016216081
165	0xbd436340	-0.047702074
166	0xbcae2ad9	-0.021260666
167	0xb7d49e44	-2.5346068e-05
168	0xbd6166a9	-0.055029545
169	0xbdad6056	-0.0846564
170	0x3df4e460	0.119576216
171	0xbda80a48	-0.08205086
172	0xbd6c5374	-0.057696775
173	0x3d7ffa8e	0.062494807
174	0xbc904f81	-0.017616035
175	0x3ca4402a	0.020050127
176	0x3ddfda80	0.109303474
177	0xbda04825	-0.078262605
178	0x3d5eec63	0.054424655
179	0x3d8400eb	0.064454876
180	0x3e0709f5	0.13187392
181	0x3d2f8a2d	0.042856384
182	0x3db624af	0.088937156
183	0xbd590b3b	-0.052989226
184	0x3dfb4d4e	0.12270604
185	0x3d243774	0.040091947
186	0x3d84d699	0.06486244
187	0xbc1e02d1	-0.009644226
188	0x3e053ac9	0.13010706
189	0x3d531e5d	0.05154263
190	0xbd524fed	-0.051345754
191	0x3c80d3f2	0.015726063
192	0xbd85b2ee	-0.06528269
193	0xbd983531	-0.074320205
194	0xbd620e6f	-0.055189546
195	0x3dad58c1	0.08464194
196	0x3cb8922e	0.022530641
197	0x3ddcb744	0.10777143
198	0x3c014004	0.007888798
199	0xbcbcfb70	-0.023069113
200	0xbc5c5949	-0.013449022
201	0x3b3b75c9	0.002860414
202	0x3d8c1bd3	0.068412445
203	0x3d965dc2	0.07342102
204	0xbdae3b01	-0.08507348
205	0x3baa467b	0.00519639
206	0x3e129f8e	0.14318678
207	0x3de1632a	0.11005242
208	0xbc576e38	-0.013148837
209	0x3d691997	0.05690917
210	0x3e151a6f	0.14560865
211	0xbc8e36ae	-0.017360058
212	0x3e092d93	0.13396291
213	0x3d153226	0.03642478
214	0x3d3ad47e	0.045612805
215	0x3ca8b9c5	0.020596394
216	0xbd1c4e36	-0.038160525
217	0x3ddb2267	0.10699921
218	0xbdaa5edf	-0.083188765
219	0x3df01f0a	0.1172467
220	0x3e11d5cf	0.14241718
221	0xbc0ae381	-0.008477093
222	0xbd6b494a	-0.05744294
223	0x3d031aad	0.032007862
224	0xbd3865cd	-0.04501896
225	0x3cefdea8	0.029280975
226	0x3e08daf5	0.13364775
227	0x3d94bc18	0.072624385
228	0x3ddb6711	0.10713018
229	0x3dc212fd	0.09476278
230	0x3d24c9a4	0.040231362
231	0x3d519bc1	0.05117393
232	0xbd8de4d1	-0.06928409
233	0xbdb662a3	-0.08905532
234	0x3d7565eb	0.05991165
235	0xbd18a644	-0.03726794
236	0xbd591e8a	-0.05300764
237	0x3dc669e0	0.09688163
238	0xbd8b063c	-0.067882985
239	0x3dbd6c7f	0.092492096
240	0xbd9ac507	-0.07557111
241	0xbd5b64d5	-0.053562958
242	0xbc623c75	-0.013808359
243	0x3e115144	0.14191157
244	0xbc7cfd17	-0.015441201
245	0xbd286ac6	-0.041117452
246	0x3d024d60	0.03181207
247	0xbc37aff0	-0.01121138
248	0x3de8f70f	0.11375248
249	0x3d8a1fb0	0.06744325
250	0x3db35c0c	0.08757791
251	0x3e143906	0.14474878
252	0x3dce05ef	0.100597255
253	0xbd54e52d	-0.05197637
254	0x3cfe06de	0.031009134
255	0x3d80aa0f	0.06282436

fc1.bias f4 [195]
0	0x3d8a3c6c	0.06749806
1	0x3c93d0e9	0.018043952
2	0x3db41b0b	0.087942205
3	0xbd9ece95	-0.07754246
4	0xbd79f74a	-0.06102685
5	0x3df16c50	0.11788237
6	0x3da40909	0.08009536
7	0x3da5fd58	0.08104962
8	0x3da4c2ee	0.080449924
9	0xbda8fe4d	-0.08251629
10	0x3d71a9b4	0.058999732
11	0x3d863c44	0.065544635
12	0xbc118d5f	-0.008883803
13	0x3dc6e334	0.09711304
14	0x3dba1212	0.09085478
15	0x3d3a2d22	0.0454532
16	0x3af7fe75	0.0018920439
17	0x3da6cb7c	0.0814428
18	0x3cb284f3	0.02179191
19	0x3d5d0a90	0.05396515
20	0x3e149457	0.14509712
21	0xbc652f78	-0.013988368
22	0xbdd2d642	-0.10294773
23	0x3db95e17	0.09051149
24	0xbd04e9c7	-0.03244951
25	0x3dc28620	0.094982386
26	0xbd5da9d0	-0.054117024
27	0x3da9bfd0	0.082885385
28	0x3d23dc33	0.04000492
29	0x3e167ba9	0.1469561
30	0xbb8ebaec	-0.004355779
31	0x3cc4058d	0.023928428
32	0xbd1781a2	-0.03698886
33	0x3c1e84c0	0.009675205
34	0xbd6c91e2	-0.057756312
35	0xbd85bd38	-0.06530231
36	0x3d9bf837	0.076157026
37	0xbd8e49da	-0.0694768
38	0x3d49a2ec	0.04922764
39	0xbcf2723a	-0.029595483
40	0x3c8f532b	0.017495712
41	0x3e015be1	0.12632705
42	0xbd0ca950	-0.034341156
43	0xbd91b85f	-0.07115244
44	0xbdbf78f5	-0.093492426
45	0xbd3d629c	-0.04623662
46	0xbd4a0d7e	-0.049329273
47	0x3e0716d0	0.13192296
48	0x3d31908a	0.043350734
49	0xbd9b5dd6	-0.07586257
50	0xbd75e8a7	-0.060036328
51	0xbd8b7356	-0.06809108
52	0xbd8de3fc	-0.0692825
53	0x3d47e969	0.04880658
54	0xbd22b42e	-0.039722614
55	0xbdfbad6c	-0.12288937
56	0xbda96d4e	-0.08272801
57	0x3cf85ce0	0.030317724
58	0xbd30cdad	-0.043164898
59	0xbcffdcf3	-0.031233286
60	0xbbbdf7d1	-0.0057973643
61	0xbd2b23fa	-0.041782357
62	0x3daaae15	0.08333985
63	0xbd187dab	-0.03722922
64	0xbce164b7	-0.027513845
65	0x3deeab9f	0.11653828
66	0xbdcfc549	-0.10145051
67	0xbcd15984	-0.02555538
68	0xba59cd2e	-0.0008308467
69	0x3c2965cb	0.010339211
70	0x3df9e421	0.12201715
71	0xbd10c212	-0.03534133
72	0xbc9237a4	-0.017848797
73	0x3cf9dec8	0.030501738
74	0xbd974424	-0.07386044
75	0xbce1d12e	-0.027565565
76	0xbc13fc30	-0.009032294
77	0xbd9d5e30	-0.076839805
78	0xbd9914be	-0.074746594
79	0xbcc4fc6e	-0.02404615
80	0x3dd49b88	0.10381228
81	0xbd353e4e	-0.04424887
82	0x3db85dce	0.09002267
83	0x3e0d3662	0.13790277
84	0xbc61e845	-0.0137882875
85	0x3e01213d	0.12610336
86	0xbd7b8c23	-0.06141294
87	0xbd566c37	-0.052349295
88	0xbca190bf	-0.01972234
89	0x3daacb9a	0.08339615
90	0xbc0d5a80	-0.008627534
91	0x3a645050	0.0008709477
92	0x3c25a7e0	0.010110825
93	0x3cc9ec31	0.024648758
94	0x3e08de74	0.13366109
95	0xbdcabda1	-0.0989945
96	0xbd1f30ef	-0.038865026
97	0xbd99d5d2	-0.07511486
98	0x3d806106	0.06268506
99	0x3dd13f46	0.102171466
100	0x3d5ccec7	0.053908136
101	0x3e140d7e	0.14458272
102	0xbda31954	-0.07963815
103	0x3d823bec	0.063590854
104	0x3d1fe135	0.039033134
105	0xbd89f2bd	-0.06735752
106	0xbce7ae08	-0.028281227
107	0x3e019683	0.12655072
108	0x3d485da2	0.04891742
109	0x3b6dd1a8	0.0036288295
110	0xbd5e332b	-0.054248016
111	0xbce0cfab	-0.027442774
112	0x3e0e8e79	0.13921537
113	0x3dcad67c	0.09904191
114	0x3d934053	0.07190003
115	0x3ddaacd5	0.10677496
116	0x3d34f745	0.044181127
117	0x3ddec67b	0.10877701
118	0x3dd5d3d9	0.10440797
119	0x3d3d8091	0.04626519
120	0x3de0e758	0.10981625
121	0xbd6a3585	-0.057179946
122	0x3db5f10d	0.088838674
123	0xbc90f6b8	-0.01769577
124	0x3da8d839	0.08244366
125	0x3cb741f8	0.022370324
126	0xbd9ccb79	-0.07655997
127	0xbd314d8c	-0.043286845
128	0x3cc0dd2c	0.023542963
129	0x3d8a303e	0.06747483
130	0x3dbf5852	0.09343018
131	0x3d5a9d94	0.053372934
132	0xbd6c10a9	-0.057633076
133	0x3cd30e9e	0.025763806
134	0x3d6871ad	0.056749035
135	0x3e1075ef	0.14107488
136	0x3d409a6f	0.04702228
137	0xbdc277e9	-0.09495527
138	0x3d8f3c8b	0.069939695
139	0x3da3b9a3	0.07994392
140	0x3a9db63e	0.0012032462
141	0xbd828345	-0.06372694
142	0xbdb61ff4	-0.08892813
143	0x3db4ce3a	0.08828397
144	0x3d9d9dc5	0.07696108
145	0x3cdeaf3b	0.027183166
146	0x3e142584	0.14467436
147	0x3dd5d4dd	0.10440991
148	0x3e12d859	0.14340343
149	0xbd2c8224	-0.0421163
150	0xbd3bfe10	-0.04589659
151	0x3d497fa2	0.049193986
152	0xbb4b19ce	-0.0030990723
153	0x3df14f36	0.117826864
154	0xbd021609	-0.031759296
155	0x3de815ba	0.11332269
156	0x3d3905ab	0.04517142
157	0xbd03ae21	-0.032148484
158	0xbd0ed069	-0.034866724
159	0x3e03f541	0.12886526
160	0x3dacd05a	0.084381774
161	0x3d3af968	0.04564801
162	0x3c84e884	0.016224153
163	0xbdc42c8e	-0.09578811
164	0xbdd4a506	-0.10383038
165	0x3cacdf81	0.021102669
166	0x3da19bea	0.07891066
167	0xbc1b6628	-0.009484805
168	0xbd02f5a6	-0.03197255
169	0x3ddbf0cd	0.107392885
170	0x3cab2cd0	0.020895392
171	0xbdb4e63e	-0.08832978
172	0xbd38b110	-0.045090735
173	0xbc6adb6e	-0.014334543
174	0xbda48aac	-0.08034262
175	0x3b5d1380	0.0033733547
176	0xbc13ed18	-0.0090286955
177	0xbc84ca94	-0.016209878
178	0x3bd3d0a0	0.006464079
179	0x3def8e52	0.11697067
180	0x3d8db2d4	0.069188744
181	0xbd9476d5	-0.07249228
182	0x3e1701d7	0.14746796
183	0x3df196ad	0.11796317
184	0x3d9e7cef	0.07738673
185	0x3dd74d05	0.10512737
186	0xbdaa0d42	-0.0830331
187	0xbd291d42	-0.041287668
188	0x3d78dd7e	0.060758106
189	0x3e0bfd51	0.13670851
190	0x3e1e953b	0.15486614
191	0x399b7aef	0.00029655496
192	0xbdab23b9	-0.08356423
193	0xbd81f676	-0.06345837
194	0xbc0c6861	-0.008569808

fc2.weight f4 [130, 195]
0	0xbcb36468	-0.021898463
1	0xbd5779dd	-0.052606452
2	0xbc4a3f78	-0.012344234
3	0xbc879598	-0.016550824
4	0x3d3a3b72	0.045466848
5	0xbd80114a	-0.062532976
6	0x3c1692e0	0.009190291
7	0x3b2dd376	0.0026523746
8	0xbd830f3b	-0.06399389
9	0x3d3269e1	0.043558005
10	0x3d674656	0.056463562
11	0xbd1404a4	-0.03613724
12	0x3d38f7a6	0.04515805
13	0xbda6f885	-0.0815287
14	0x3d3fd26e	0.04683154
15	0x3d2227c1	0.039588694
16	0x3bd4de60	0.0064962357
17	0x3ccad023	0.02475745
18	0xbad3473d	-0.0016119253
19	0x3d136490	0.035984576
20	0xbce9939f	-0.028512774
21	0xbd6a3349	-0.057177816
22	0xbc53ff70	-0.012939319
23	0xbd840ed7	-0.06448143
24	0xbbfe5048	-0.007761035
25	0x3d78a315	0.060702402
26	0x3d2b4461	0.041813258
27	0xbd7c9540	-0.061665773
28	0xbb1d9831	-0.0024047012
29	0xbd27ae0a	-0.04093746
30	0x3d62535b	0.055255275
31	0xbd400443	-0.046879064
32	0xbca91776	-0.02064107
33	0xbcdaed30	-0.026724428
34	0x3d2f3bed	0.04278176
35	0xbd8d4de7	-0.06899624
36	0x3d760113	0.06005962
37	0xbd715410	-0.05891806
38	0xbda55db8	-0.08074516
39	0x3c97d531	0.018534275
40	0x3c8c886b	0.017154893
41	0xbd6ba85b	-0.057533603
42	0xbbd7f6c0	-0.006590694
43	0x3c2da7e8	0.010599114
44	0xbd2eb4e2	-0.042652972
45	0xbda060db	-0.07830974
46	0xbbaeae05	-0.0053308033
47	0x3ce63254	0.02810017
48	0xbca25bcb	-0.01981916
49	0xbbbcb8c0	-0.0057593286
50	0xbd8d0d78	-0.068873346
51	0x3cfb1bdd	0.030652935
52	0x3bba6f16	0.005689512
53	0xbc90b823	-0.017665928
54	0xbc3d80c7	-0.011566347
55	0xbd715b89	-0.058925185
56	0xbcfdc514	-0.030977763
57	0xbda14721	-0.07874895
58	0x3cde65db	0.027148178
59	0xbc5914d3	-0.013249594
60	0x3cfe31ed	0.031029666
61	0xbd6eec66	-0.058330916
62	0x3d1d5b48	0.03841713
63	0x3d62c0db	0.055359703
64	0xbc0b4cea	-0.008502224
65	0xbc46ad64	-0.0121263005
66	0xbd9c018f	-0.07617485
67	0xbb9e1e10	-0.004825361
68	0xbd7ca290	-0.06167847
69	0x3cb37efc	0.021911137
70	0x3c2fa5ce	0.010720683
71	0x3d2ecd4a	0.042676248
72	0xbc6ab694	-0.014325757
73	0xbd890591	-0.06690515
74	0xbc82c1ea	-0.015961606
75	0x3d315d46	0.043301843
76	0x3cb1737f	0.021661518
77	0xbc8a0f6a	-0.016853053
78	0xbd391fc4	-0.04519631
79	0xbc762cdb	-0.015025343
80	0x3d4a173b	0.04933856
81	0x3d1424ac	0.036167786
82	0x3c708da0	0.0146822035
83	0x3d4c5390	0.04988438
84	0x3ba013e0	0.004885182
85	0xbd1c3d90	-0.038144648
86	0x3ca8fbcf	0.020627884
87	0x3d4a8a13	0.049448084
88	0x3d58c737	0.05292436
89	0x3d8d5f05	0.06902889
90	0xbd8507c9	-0.064956255
91	0xbd31bc61	-0.043392543
92	0xbd5609e0	-0.05225551
93	0x3d0a3e8e	0.033751063
94	0xbcae6e18	-0.021292731
95	0x3d4229b0	0.047403038
96	0xbcd708cc	-0.026249312
97	0xbc3faf8d	-0.011699569
98	0xbd4b287a	-0.04959915
99	0xbd17ef39	-0.037093375
100	0xbd3b1b0f	-0.045680102
101	0x3caef610	0.021357566
102	0xbd4a66d8	-0.049414486
103	0xbd3586ce	-0.044318013
104	0xbd94cd31	-0.072657
105	0x3c5587d5	0.013032873
106	0x3b90379b	0.00440116
107	0xbd95e9d4	-0.0731999
108	0x3b2bc157	0.0026207769
109	0x3cb9f7fa	0.022701252
110	0xbd1770aa	-0.03697268
111	0xbd8e8e6d	-0.06960759
112	0xbd9f308a	-0.0777293
113	0xb9f5105b	-0.00046742227
114	0xbcc56836	-0.024097543
115	0xbd9fdc30	-0.07805669
116	0xbccf15f1	-0.025279017
117	0xbd17bbf4	-0.03704448
118	0x3cb9509c	0.022621445
119	0xbc0224d9	-0.0079433555
120	0x3d5f31e1	0.054490928
121	0x3d54b28f	0.0519281
122	0x3d2221fd	0.039583195
123	0xbc660878	-0.014040105
124	0x3d465fb6	0.04843112
125	0xbd0b3593	-0.03398664
126	0x3cfeb645	0.031092772
127	0xbd821fb6	-0.06353705
128	0x3d3a4a7f	0.0454812
129	0xbd6c1bf3	-0.057643842
130	0xbc569e90	-0.013099328
131	0xbd7aac84	-0.06119968
132	0xbd2ba823	-0.041908395
133	0x3d5826cd	0.05277138
134	0xbd1c0fa9	-0.038100872
135	0x3cf84b22	0.030309264
136	0x3d67c80b	0.05658726
137	0x3a7d944b	0.00096732815
138	0xbc4a8a9f	-0.012362151
139	0xbcc1dfcf	-0.02366629
140	0xbd22b9bb	-0.039727908
141	0xbcd9fc26	-0.026609492
142	0xbd741bec	-0.05959694
143	0x3d51e359	0.051242206
144	0xbca04bfc	-0.019567482
145	0xbd9f0cee	-0.07766138
146	0xbc08da24	-0.00835279
147	0x3caebf77	0.021331532
148	0xbda45971	-0.08024872
149	0xbd35783d	-0.04430412
150	0x3d408944	0.047005907
151	0x3c49c7cd	0.012315703
152	0x3d56eb3e	0.05247044
153	0x3b9e717d	0.004835306
154	0x3bfce413	0.0077176183
155	0xbc26b0df	-0.010174005
156	0x3d24ecb3	0.040264796
157	0x3a247ac1	0.0006274395
158	0x3b2a23ee	0.0025961357
159	0xbc923d7a	-0.01785158
160	0x3c995e51	0.018721731
161	0x3cda3d6c	0.026640616
162	0xbd2372bd	-0.039904345
163	0xbd713a71	-0.058893625
164	0xbd71d125	-0.059037346
165	0x3d6322be	0.055453055
166	0xbc811fdf	-0.015762268
167	0xbd4f76d2	-0.050650425
168	0xbd85f85d	-0.06541512
169	0x3d36a7fa	0.04459379
170	0xbc36bfdd	-0.011154142
171	0xbd72d54a	-0.05928544
172	0x3ca0eb47	0.019643439
173	0xbb313974	-0.0027042301
174	0x3d59d373	0.05318017
175	0x3d5cbc8a	0.053890742
176	0x3d5c6d4a	0.053815164
177	0x3d489e3c	0.04897903
178	0xbd21b999	-0.03948364
179	0xbd98cbca	-0.07460745
180	0x3cd9a744	0.026569016
181	0xbcb53533	-0.022120094
182	0x3bfc092a	0.007691522
183	0xbd016372	-0.03158898
184	0x3c6a0517	0.01428344
185	0x3c4aafa5	0.0123709785
186	0x3c9edcfb	0.019392481
187	0xbd0789a7	-0.03309026
188	0xbd9115f6	-0.07084267
189	0x3d1c0a37	0.03809568
190	0x3d40dea2	0.04708732
191	0x3d5c8697	0.053839292
192	0x3d6fe809	0.058570895
193	0x3d4aa387	0.049472358
194	0x3d8b1831	0.067917235
195	0x3dac60c9	0.08416898
196	0x3d7fc5b9	0.062444422
197	0x3da49bb7	0.08037513
198	0x3d3bf79e	0.045890443
199	0x3d76c171	0.060243074
200	0xbd100e8c	-0.035170123
201	0xbbdedcdd	-0.0068012313
202	0x3d539f33	0.051665496
203	0xbd0216a3	-0.03175987
204	0xbb89da74	-0.00420695
205	0x3d85b977	0.06529515
206	0x3c3b965f	0.0114494255
207	0x3d7420a6	0.05960145
208	0x3dae7d43	0.085199855
209	0xbcf2e6b0	-0.029651016
210	0x3d1f77dd	0.03893267
211	0x3dc2fe17	0.0952112
212	0x3d086220	0.033296704
213	0x3d4bf4e7	0.049794104
214	0xbd40452a	-0.04694096
215	0x3caaac03	0.020833975
216	0x3c84ee73	0.016226983
217	0xbcdd337c	-0.027002089
218	0x3d269571	0.040669862
219	0x3dade486	0.08490853
220	0x3d676413	0.056491923
221	0x3da34721	0.07972551
222	0xbc4e7377	-0.012600771
223	0x3dbe2bdc	0.09285709
224	0x3c0f514b	0.008747409
225	0x3da2086c	0.079117626
226	0x3d4ea73f	0.050452467
227	0x3d22d9ef	0.03975862
228	0x3d61749e	0.055042855
229	0x3de8fddb	0.11376544
230	0xbc0aaf5a	-0.008464659
231	0xbbf4121c	-0.007448448
232	0xbd5cd8b4	-0.0539176
233	0x3bb5c4fb	0.0055471635
234	0x3c18d45c	0.009327974
235	0xba83accf	-0.0010046008
236	0xbcb183f5	-0.021669367
237	0xbbcf65c8	-0.006329272
238	0x3cea02b3	0.02856574
239	0x3b928dc4	0.004472466
240	0x3d79f317	0.061022844
241	0xbd2238d1	-0.039604966
242	0x3bb4ed2d	0.0055214376
243	0x3cbdb210	0.023156196
244	0xbd82aa5e	-0.06380151
245	0xbc2d0207	-0.010559565
246	0x3d436ac2	0.047709234
247	0x3d0d344c	0.034473702
248	0x3dac5757	0.08415096
249	0x3d7f4fc8	0.062331945
250	0x3d40f9e0	0.0471133
251	0x3d237f78	0.039916486
252	0x3d134e20	0.035963178
253	0xbd480d1e	-0.048840635
254	0x3dab8ceb	0.08376487
255	0xbcad11a5	-0.021126578

fc2.bias f4 [130]
0	0x3d1815b8	0.037130088
1	0x3dc1274e	0.09431325
2	0xbc600ef7	-0.013675443
3	0xbd8bf134	-0.06833115
4	0x3daa6ed8	0.08321923
5	0x3d8e613d	0.069521405
6	0x3d9ee364	0.07758215
7	0x3d255ec9	0.040373597
8	0x3d65a3ca	0.056064405
9	0x3d984fdc	0.07437107
10	0xbd07cb54	-0.033152893
11	0xbd9b3f43	-0.075804256
12	0xbd1a92e8	-0.037737757
13	0x3db799b6	0.08964865
14	0x3c8de764	0.01732225
15	0xb8cd7d14	-9.798459e-05
16	0x3bd8f4c0	0.0066209733
17	0xbd800ef8	-0.06252855
18	0xbcbd4d28	-0.02310808
19	0xbd43bcfd	-0.047787655
20	0xbd28f5e6	-0.041250132
21	0xbd7514cd	-0.05983429
22	0x3d88aa16	0.06673066
23	0xbd35a4ad	-0.0443465
24	0x3d1f47eb	0.038886946
25	0xbd17c58b	-0.037053626
26	0xbc5450ec	-0.012958746
27	0xbd2dd25a	-0.042436935
28	0xbcf5f5f4	-0.030024506
29	0xbc43ba55	-0.0119462805
30	0x3d81de27	0.063412
31	0x3d517230	0.05113429
32	0xbd568392	-0.05237157
33	0x3d92a4c9	0.071603365
34	0x3cd6ab2d	0.02620467
35	0xbd7a57f7	-0.061119046
36	0xbc321849	-0.010870048
37	0xbd0f8d0c	-0.035046622
38	0xbc67681c	-0.014123943
39	0xbd156cea	-0.03648082
40	0xbd8b4ac2	-0.06801368
41	0x3da5211f	0.08062958
42	0xbd49aa01	-0.049234394
43	0xbabf47de	-0.0014593562
44	0x3dbbac55	0.09163729
45	0xba528f2f	-0.00080322
46	0xbd24d70c	-0.040244147
47	0xbd10b1ec	-0.03532593
48	0xbd16e310	-0.036837637
49	0xbd98ab8e	-0.074545965
50	0x3dabc92d	0.083879806
51	0x3d0b6624	0.034032956
52	0x3d1b581c	0.037925825
53	0xbc78486f	-0.015153988
54	0x3b8f1149	0.004366074
55	0xbcc1145a	-0.023569275
56	0x3cb59444	0.022165425
57	0x3d2cac83	0.042156707
58	0xbcd0f0cf	-0.025505451
59	0x3ce38799	0.027774619
60	0x3d503294	0.050829485
61	0x3d206d1c	0.039166555
62	0x3ce72325	0.028215
63	0xbd1f6fd0	-0.038924992
64	0x3d27e745	0.04099204
65	0x3d07b489	0.033131156
66	0xbca15bbe	-0.019697066
67	0x3bb4a523	0.00551285
68	0xbc8105a1	-0.015749754
69	0x3c799626	0.015233552
70	0xbc834836	-0.016025644
71	0x3cdcaa84	0.026936777
72	0xbd7416a3	-0.0595919
73	0x3d3dfc03	0.046382915
74	0xbc47396f	-0.012159689
75	0x3bfdb98e	0.007743067
76	0xbc3dfc38	-0.011595778
77	0xbd543f4d	-0.05181818
78	0x3d262bc3	0.04056908
79	0xbae20100	-0.001724273
80	0x3d32de69	0.043669138
81	0xbd8e4b3b	-0.06947943
82	0xbd5a3980	-0.053277493
83	0x3d8baeca	0.06820448
84	0xbc2e2939	-0.010629945
85	0x3d93b339	0.072119184
86	0xbd53174e	-0.051535897
87	0xbceb2c8a	-0.028707761
88	0xbcef8c7a	-0.02924179
89	0x3d802b5c	0.0625827
90	0xbbb63d1c	-0.005561484
91	0xbd81f657	-0.06345814
92	0xbce9ee51	-0.02855602
93	0xbcf263fc	-0.029588692
94	0x3d51970d	0.051169444
95	0x3dbbaae4	0.09163454
96	0xbd1e1623	-0.03859533
97	0xbcad0925	-0.021122525
98	0x3cdfa569	0.027300553
99	0xbc689ed7	-0.014198027
100	0xbd99438a	-0.07483585
101	0xbd49b00f	-0.04924017
102	0xbb9f0e77	-0.0048540193
103	0x3ab95412	0.0014139435
104	0x3dcb2c0e	0.09920512
105	0xbcaa8010	-0.020813018
106	0xbc724de0	-0.014789075
107	0x3d8e828c	0.069584936
108	0xbc71174d	-0.014715028
109	0x3d0ceb66	0.03440418
110	0x3d3a84bf	0.045536753
111	0xbc052ea2	-0.008128794
112	0x3d5d960f	0.054098185
113	0x3c957a54	0.018246807
114	0x3c60e42a	0.013726274
115	0xbda62972	-0.08113374
116	0x3ce08338	0.02740632
117	0xbd82d363	-0.06387975
118	0x3d06f938	0.032952517
119	0x3c10c14d	0.008835149
120	0x3bff5c9a	0.0077930214
121	0x3daa2afc	0.0830898
122	0xbd4124b2	-0.047154136
123	0x3d9e0039	0.07714886
124	0xbd534efe	-0.051589005
125	0xbc22962b	-0.009923498
126	0xbbbfa713	-0.005848774
127	0x3cbf5e48	0.023360386
128	0xbd8c0846	-0.068375155
129	0x3d96d35c	0.07364532

fc3.weight f4 [65, 130]
0	0x3d0e8f56	0.034804665
1	0x3d4a2a81	0.04935694
2	0xbcb15a2a	-0.021649439
3	0xbc861388	-0.016366735
4	0xbdc22920	-0.094805
5	0xbd70cd42	-0.0587895
6	0x3d86cea7	0.065823846
7	0xbda312d6	-0.07962577
8	0xbdb66d32	-0.08907546
9	0xbcb53a14	-0.02212242
10	0x3d1669ed	0.036722112
11	0xbdb3b539	-0.087748
12	0xbd057096	-0.032578073
13	0xbd1db7ad	-0.038505245
14	0x3da3e30b	0.080022894
15	0x3d22c113	0.03973491
16	0xbce5015c	-0.02795475
17	0xba84eeeb	-0.0010142004
18	0x3c39a490	0.011330739
19	0xbd9503fb	-0.0727615
20	0x3c711880	0.014715314
21	0xbd4d642a	-0.050144352
22	0x3d9c58a1	0.07634092
23	0xbbcdd840	-0.0062818825
24	0x3d496bf0	0.049175203
25	0xbd0ad150	-0.033891022
26	0xbcd9509b	-0.026527693
27	0x3d318c49	0.043346677
28	0xbd560030	-0.052246273
29	0x3b8f9d0c	0.004382735
30	0xbd4f654f	-0.050633725
31	0xbd32ed5a	-0.043683387
32	0x3d8d7b37	0.06908267
33	0x3d617be1	0.05504978
34	0xbd816a02	-0.063190475
35	0x3ca24cd5	0.019812027
36	0xbdbfc4b2	-0.093636885
37	0xbd45569b	-0.048178297
38	0x3d38e93a	0.045144297
39	0xbced64ee	-0.028978791
40	0x3d13e14c	0.03610353
41	0x3c84ff4a	0.016235013
42	0xbd6b34b7	-0.05742332
43	0xbd0ef230	-0.034898937
44	0x3d972cec	0.07381615
45	0x3c2fef1c	0.01073816
46	0xbdb96f0e	-0.09054385
47	0xbd2e0b01	-0.042490963
48	0xbda99c4a	-0.08281763
49	0x3d8a6ce7	0.06759053
50	0x3d6a951d	0.05727111
51	0x3d539de6	0.051664256
52	0xbbe97bd8	-0.007125359
53	0x3d9b9c32	0.07598151
54	0x3b955233	0.004556918
55	0xbd1b86e9	-0.037970457
56	0xbcccd580	-0.025004148
57	0xbd511358	-0.05104384
58	0x3d4128ca	0.04715804
59	0xbd80bdf0	-0.06286228
60	0xbb9cad33	-0.004781389
61	0x3c5022b8	0.01270359
62	0x3cc59f3a	0.024123777
63	0x3d5f86a7	0.054571774
64	0xbaada734	-0.0013248683
65	0xbd98a70b	-0.07453736
66	0x3d44b7ee	0.04802697
67	0x3d3d24a3	0.046177518
68	0x3d1794b0	0.037007034
69	0x3d395d17	0.045254793
70	0xbc0b2d60	-0.008494705
71	0x3c69d7f1	0.014272676
72	0x3d738436	0.059452258
73	0xbcb06465	-0.021532247
74	0xbd0e93a1	-0.03480876
75	0xbd89ad7a	-0.06722541
76	0x3d4a1926	0.04934039
77	0xbcbc14ff	-0.02295923
78	0xbcccc002	-0.0249939
79	0x3c09a5e0	0.008401364
80	0xbd8d4069	-0.06897051
81	0x3d63e589	0.055638824
82	0xbae23340	-0.0017257705
83	0xbdb39495	-0.08768574
84	0xbce92400	-0.028459549
85	0x3d8d6d23	0.06905582
86	0xbdad53cb	-0.08463248
87	0xbba2dd90	-0.00497026
88	0xbcdc3853	-0.026882326
89	0x3d467862	0.04845465
90	0x3d221113	0.039567064
91	0xbdb3eb27	-0.08785086
92	0x3d01aed3	0.031660866
93	0x3d9ccacd	0.07655869
94	0x3d998e8d	0.074978925
95	0xbd850c31	-0.06496466
96	0x3cc383f0	0.023866624
97	0xbcdc02e0	-0.02685684
98	0xbb226c6a	-0.0024783858
99	0xbd4205cb	-0.047368806
100	0x3d698b06	0.05701735
101	0xbdb73d6d	-0.08947263
102	0xbbd3202b	-0.0064430437
103	0xbae475a9	-0.0017430085
104	0x3cf96590	0.030443937
105	0xbd20b407	-0.039234187
106	0xbcc90750	-0.02453962
107	0x3d29b279	0.04142997
108	0x3d8ec205	0.069706
109	0xbda22e71	-0.07919014
110	0xbd9226ba	-0.07136293
111	0xbd565f46	-0.052336954
112	0xbcc8645f	-0.024461923
113	0x3d4ceaa2	0.05002845
114	0x3d039be0	0.032131076
115	0x3c3729fe	0.011179445
116	0xbdb0251f	-0.0860083
117	0xbc5b6978	-0.013391845
118	0xbd79c509	-0.060978923
119	0x3d85e71d	0.06538222
120	0xbd9f360f	-0.07773983
121	0x3cae71fd	0.021294588
122	0xbc1351d0	-0.008991674
123	0xbd9eb4ea	-0.0774935
124	0x3d07b100	0.033127785
125	0xbd95e006	-0.0731812
126	0x3d0f25b8	0.03494808
127	0xbcf86824	-0.030323096
128	0xbd4b3dc3	-0.049619447
129	0x3d0d725a	0.034532882
130	0xbd1daa08	-0.038492233
131	0x3c44ad48	0.012004204
132	0xbd8d867d	-0.06910417
133	0x3c4072f8	0.011746161
134	0xbcac8104	-0.021057613
135	0x3d9184f7	0.07105439
136	0xbd024643	-0.031805288
137	0x3c59e7a8	0.01329986
138	0xbda18321	-0.07886339
139	0xbc5bfd90	-0.013427153
140	0x3d8a9d59	0.06768293
141	0xbd3ba074	-0.045807317
142	0x3d74d4c6	0.05977323
143	0x3bd4e1b0	0.0064966306
144	0xbcf8de58	-0.03037946
145	0x3d6abe76	0.057310544
146	0xbd3adfdd	-0.04562365
147	0x3d34cebe	0.044142477
148	0xbc56ac48	-0.0131025985
149	0x3c7765a0	0.015099913
150	0xbd8abdd1	-0.06774486
151	0xbd0df416	-0.034656607
152	0x3d65b592	0.056081362
153	0xbd50b8b5	-0.0509574
154	0x3d2789d2	0.04090292
155	0x3cb4ae6c	0.022055827
156	0x3cf5a768	0.029987052
157	0xbc19a0a0	-0.009376675
158	0x3cf95618	0.03043656
159	0xbdab1fb3	-0.083556555
160	0xbdac1b5c	-0.08403656
161	0x3d664646	0.05621936
162	0x3d396a36	0.045267306
163	0xbcdfd95e	-0.027325328
164	0xbd3b9ef9	-0.045805905
165	0xbc9b0e28	-0.018927649
166	0xbd01afc8	-0.03166178
167	0xbd82a590	-0.06379235
168	0x3cafac50	0.02144447
169	0xbcea1830	-0.028575987
170	0xbcc281e4	-0.023743577
171	0xbd5d7f50	-0.054076493
172	0x3c392810	0.011301056
173	0xbd443301	-0.047900204
174	0xbdb38b76	-0.087668344
175	0xbda400af	-0.08007943
176	0xbc64f6f8	-0.013974898
177	0x3d93ebc1	0.07222701
178	0xbb171ae0	-0.002305679
179	0x3c066530	0.008202836
180	0x3d8874dd	0.06662915
181	0x3d801d95	0.06255642
182	0xbd33ddeb	-0.04391281
183	0x3d266346	0.04062202
184	0xbcd215e0	-0.025645196
185	0xbd6e4d48	-0.05817917
186	0x3d8757fd	0.06608579
187	0x3b7695c0	0.003762588
188	0x3c2b19f0	0.010443196
189	0xbd1a5410	-0.037677824
190	0x3c974720	0.018466532
191	0xbd56462b	-0.05231301
192	0x3c5596b0	0.013036415
193	0x3d5a7746	0.053336404
194	0xbd78109c	-0.060562715
195	0x3da1b8d3	0.078965805
196	0xbd7877fc	-0.0606613
197	0x3d8e7def	0.06957614
198	0xbd3808f2	-0.044930406
199	0xbd01738c	-0.031604335
200	0xbcb0f480	-0.021600962
201	0x3b301b40	0.002687171
202	0x3d969803	0.07353213
203	0x3a8d0f00	0.0010761917
204	0x3d797456	0.060901962
205	0xbcad9990	-0.021191388
206	0xbcd8fe7c	-0.026488535
207	0xbd2ceb7c	-0.042216763
208	0xbdafdf4a	-0.08587511
209	0x3b16d780	0.0023016632
210	0x3d88ca1b	0.066791736
211	0xbd36177a	-0.044455983
212	0x3d036ac2	0.032084234
213	0x3d60899e	0.054818742
214	0x3d8bb7cb	0.06822165
215	0x3d01581c	0.03157817
216	0xb9048000	-0.00012636185
217	0x3c9f97e8	0.019481614
218	0xbd1c86c0	-0.038214445
219	0xbd6dcf50	-0.058059037
220	0xbdb04e5d	-0.086086966
221	0xbd14cf85	-0.03633072
222	0x3d0d274c	0.034461305
223	0x3d87de31	0.066341765
224	0xbd23741c	-0.039905652
225	0x3b842ae0	0.0040334314
226	0xbbb495a0	-0.0055110008
227	0xbd3bad3d	-0.04581951
228	0xbd39120c	-0.045183226
229	0xbbf29480	-0.0074029565
230	0x3d637e36	0.055540286
231	0x3dacaa63	0.08430936
232	0xbd0344c9	-0.03204802
233	0xbd34e6d5	-0.04416545
234	0x3d9e100f	0.07717907
235	0x3da8850b	0.08228501
236	0xbd284723	-0.041083466
237	0xbd63e7c8	-0.055640966
238	0x3b008ee0	0.001961641
239	0xbda1c5b1	-0.07899035
240	0xbd7d7952	-0.06188328
241	0xbd2f1c3b	-0.042751532
242	0xbd8ea5e8	-0.06965238
243	0x3da80035	0.082031645
244	0x3cd467c0	0.025928378
245	0x3d1935a2	0.037404664
246	0x3b68b1c0	0.0035506338
247	0x3b02c2e0	0.001995258
248	0xba5ab680	-0.00083432347
249	0xbd215a5a	-0.039392807
250	0xbb8b6110	-0.004253514
251	0xbd8af46e	-0.067849025
252	0x3c492b00	0.012278318
253	0x3cd9c008	0.026580825
254	0xbd34cd82	-0.0441413
255	0xbd0c9a4c	-0.034326836

fc3.bias f4 [65]
0	0xbd7b36f9	-0.061331723
1	0xbdb26d9a	-0.08712311
2	0xbd01d178	-0.031693906
3	0xbc886867	-0.016651345
4	0xbd31b2f4	-0.043383554
5	0xbd1eefd7	-0.038802948
6	0xbd044546	-0.032292627
7	0x3d9516b7	0.07279723
8	0x3b7c59d0	0.003850568
9	0x3cdfad12	0.027304206
10	0xbc42ef21	-0.011897833
11	0xbd6607c4	-0.05615975
12	0x3d0ea03e	0.034820788
13	0x3dcddba9	0.100516625
14	0x3dae8fd2	0.08523525
15	0xbd19dc3d	-0.03756355
16	0x3d500d4a	0.050793923
17	0x3d27dc61	0.040981654
18	0xbd89d64b	-0.06730326
19	0x3d3d6700	0.046240807
20	0x3d12e956	0.035867058
21	0x3da647e0	0.08119178
22	0x3d05f5a7	0.032704975
23	0x3d607a6e	0.054804258
24	0xbb5a1c44	-0.0033281008
25	0x3dc852e3	0.097814344
26	0x3d09d928	0.033654362
27	0xbd8313f1	-0.06400288
28	0x3d53edc8	0.051740438
29	0x3c1d1878	0.009588353
30	0xbccfd580	-0.02537036
31	0xbc874a43	-0.016514903
32	0xbdcb76a2	-0.09934737
33	0x3d5cefc3	0.053939592
34	0x3dc5c667	0.09656983
35	0xbcf1190d	-0.02943089
36	0xbc391eff	-0.011298894
37	0xbd1b4e09	-0.037916217
38	0x3d7dda1a	0.061975576
39	0x3d2189ec	0.039438173
40	0xbd8b8470	-0.0681237
41	0xbcd2a22e	-0.025712099
42	0xbca7d5f2	-0.02048776
43	0xbda5417d	-0.080691315
44	0xbda17ac1	-0.078847416
45	0x3d996a60	0.074909925
46	0x3c878f2e	0.016547766
47	0x3cb0ce87	0.021582855
48	0xbdb1486e	-0.08656393
49	0x3cd86ab8	0.026418075
50	0x3c0dbc12	0.0086507965
51	0xbbf46b5a	-0.0074590864
52	0xbd696093	-0.056976866
53	0xbdc75186	-0.09732346
54	0x3dbd3429	0.092384644
55	0x3dc61990	0.096728444
56	0xbb524905	-0.003208698
57	0xbd034814	-0.03205116
58	0x3d81ec6d	0.06343923
59	0x3d18f93e	0.03734707
60	0x3d72c8e4	0.059273615
61	0x38b25682	8.503815e-05
62	0xbd63975e	-0.055564277
63	0xbd82aef2	-0.063810244
64	0xbcd13146	-0.02553619

fc4.weight f4 [130, 65]
0	0x3d3e439d	0.0464512
1	0x3be690a0	0.0070362836
2	0x3dd0f44d	0.10202847
3	0x3d13e04c	0.036102578
4	0xbda51a28	-0.080616295
5	0x3db8f738	0.09031528
6	0xbd789008	-0.060684234
7	0xbdce6fc2	-0.1007991
8	0xbd3b08cc	-0.045662686
9	0x3cf31d17	0.029676957
10	0xbe068d46	-0.13139829
11	0x3bf17b40	0.007369429
12	0x3dcc6638	0.09980434
13	0x3d89a496	0.067208454
14	0xbcf5cc13	-0.030004537
15	0xbd67ac04	-0.05656053
16	0x3d8d4833	0.068985365
17	0xbdb5e670	-0.08881843
18	0x3d557801	0.052116398
19	0x3d81e288	0.063420355
20	0xbdcc9cc0	-0.09990835
21	0x3ce0146a	0.027353484
22	0xbc45d02e	-0.01207356
23	0xbd9c391e	-0.07628082
24	0x3d82534c	0.06363544
25	0xbe00a8e2	-0.12564424
26	0xbd8e8e77	-0.06960767
27	0x3cde10c8	0.027107611
28	0xbd62aa24	-0.05533804
29	0x39ff58c4	0.00048703526
30	0x3dd850ac	0.10562262
31	0x3db2ba4e	0.08726941
32	0x3d9e4da5	0.07729653
33	0x3d4bfed1	0.04980356
34	0xbc31c105	-0.010849242
35	0x3da1a96e	0.07893644
36	0x3da9d8ce	0.08293305
37	0x3dc127df	0.09431433
38	0x3bcafdff	0.0061948295
39	0xbd82e819	-0.06391925
40	0xbdbf9d7c	-0.0935621
41	0xbd39ca80	-0.045359135
42	0x3d02fca1	0.031979207
43	0x3db5d14a	0.08877809
44	0x3c2af240	0.010433733
45	0xbd15c841	-0.03656793
46	0xbd2e501e	-0.042556874
47	0xbdb7245d	-0.089424826
48	0x3c9395b8	0.018015727
49	0x3c6b5250	0.014362887
50	0x3cb6657e	0.022265192
51	0xbd8b9e98	-0.06817359
52	0xbd72b35f	-0.059253093
53	0x3d0512a1	0.03248847
54	0xbe004988	-0.1252805
55	0x3d8ab068	0.06771928
56	0x3dc878cf	0.097886674
57	0x3cdfeb8f	0.027334003
58	0x3d0a7d99	0.033811186
59	0x3daf4964	0.0855892
60	0xbc8563e6	-0.016282987
61	0x3cd9de04	0.026595123
62	0xbce6a675	-0.028155545
63	0xbe039534	-0.12849885
64	0x3b837df0	0.0040128157
65	0xbd9369bb	-0.07197901
66	0x3c9a8950	0.018864304
67	0x3db1065b	0.0864379
68	0xbc967960	-0.018368423
69	0xbddcb2f6	-0.107763216
70	0xbc4aabf8	-0.012370102
71	0x3d8ace1b	0.06777593
72	0x3d182722	0.037146695
73	0x3d7cdb4a	0.061732568
74	0x3cd51c31	0.02601442
75	0x3b3312c2	0.0027324413
76	0xbdd8e1d0	-0.10589945
77	0x3d9a9220	0.075474024
78	0xbc17946f	-0.009251698
79	0x3b5958d1	0.003316451
80	0x3dba9408	0.09110266
81	0xbdb8553d	-0.09000633
82	0x3e05f59d	0.13081975
83	0xbcc6a948	-0.024250641
84	0xbc05e42e	-0.008172078
85	0xbd946766	-0.07246284
86	0x3d4858c5	0.048912782
87	0xbd48ffcc	-0.049072072
88	0x3d508bc3	0.050914537
89	0xbda25cce	-0.07927857
90	0xbcf597b2	-0.02997956
91	0xbd5b09ab	-0.053476017
92	0xbdb316b2	-0.08744563
93	0xbd8bd13e	-0.06827019
94	0x3daefc2f	0.08544194
95	0xbd8a3763	-0.067488454
96	0x3cb981f6	0.022644978
97	0xbb5eb724	-0.0033983672
98	0x3ddc27b1	0.10749758
99	0x3dd46e7b	0.10372635
100	0x3e01f79f	0.12692116
101	0x3d887d64	0.06664541
102	0xbde7239f	-0.11286091
103	0xbd4efaae	-0.050532036
104	0x3da328b5	0.079667486
105	0xbd5842c3	-0.052798044
106	0x3da72e0a	0.08163078
107	0xbc89c536	-0.01681767
108	0xbdcf27d9	-0.10115022
109	0xbd99a36a	-0.07501872
110	0xbcad12b6	-0.021127086
111	0x3d1287bd	0.03577398
112	0x3df3e2d4	0.119084984
113	0xbcd7b834	-0.026332952
114	0x3d8f4003	0.06994631
115	0xbcaacda8	-0.020850018
116	0xbd24828a	-0.040163554
117	0xbd98e43b	-0.074654065
118	0xbdb99ee2	-0.090635076
119	0x3de1cc56	0.11025302
120	0x3d95c774	0.07313433
121	0xbd331135	-0.04371758
122	0x3dbc24c2	0.091866985
123	0x39bd7a21	0.00036139882
124	0x3df1e35a	0.11810942
125	0x3d3b8f3a	0.04579089
126	0xbc1e8eca	-0.009677598
127	0x3b3449dd	0.0027509846
128	0xbde0f247	-0.10983711
129	0x3d3f4a83	0.04670192
130	0x3cf8d568	0.030375198
131	0xbd9af390	-0.07565987
132	0xbba80540	-0.005127579
133	0x3c08e490	0.008355275
134	0xbd072f86	-0.033004306
135	0x3bb99ba0	0.005664304
136	0x3db91e6e	0.09039007
137	0x3cd2e3e8	0.02574344
138	0x3d4edcfc	0.050503716
139	0xbdcc05cb	-0.099620424
140	0x3de5e12a	0.11224587
141	0x3d094a94	0.03351839
142	0xbdc22e3f	-0.09481477
143	0xbdac2702	-0.08405878
144	0xbda464ae	-0.080270156
145	0xbde3d82e	-0.111252174
146	0xbde2f70c	-0.11082277
147	0xbdf5c871	-0.12001122
148	0xbd9517c6	-0.07279925
149	0xbcac9dc4	-0.021071322
150	0x3d2b0954	0.041756943
151	0xbd0230c0	-0.031784773
152	0xbce07280	-0.027398348
153	0xbddceafe	-0.10787009
154	0x3d4dec2c	0.05027406
155	0x3dfd1b2e	0.123587
156	0x3cac29e8	0.021016076
157	0xbdfc38cd	-0.123155214
158	0x3dc1bca2	0.09459807
159	0xbd410920	-0.047127843
160	0x3ca3f318	0.020013377
161	0xbdc4a78f	-0.09602272
162	0xbdae70c4	-0.08517602
163	0xbdeff04f	-0.11715757
164	0x3d9f0532	0.07764663
165	0xbc89f774	-0.016841628
166	0x3c41e7e0	0.011835068
167	0x3d06451c	0.03278075
168	0xbdb9e958	-0.0907771
169	0x3d8dd4ac	0.069253296
170	0xbdd236d3	-0.10264363
171	0x3d4c50f4	0.04988189
172	0xbdda6ff9	-0.10665888
173	0x3c7e87c0	0.015535295
174	0xbdd30d94	-0.10305324
175	0xbd30346c	-0.043018743
176	0xbdc22009	-0.094787665
177	0xbd012598	-0.031529993
178	0x3d1df4f8	0.0385637
179	0x3c6dae20	0.014506847
180	0x3d728568	0.059209257
181	0xbdbc0b66	-0.091818616
182	0xbd75d316	-0.06001576
183	0xbdf12bc3	-0.11775925
184	0x3d9d1d64	0.076716214
185	0xbdda3960	-0.10655475
186	0x3d960d5c	0.07326767
187	0x3d15bcbc	0.036556944
188	0x3db328b4	0.08747998
189	0x3c136b20	0.008997709
190	0x3d9c84bc	0.076425046
191	0x3de82ca8	0.113366425
192	0x3d94faca	0.07274397
193	0x3de07a54	0.10960832
194	0xbc944a28	-0.018101767
195	0xbcc6c970	-0.024265975
196	0x3d84259e	0.064524874
197	0xbdcfe7c1	-0.101516254
198	0xbd74b626	-0.059744023
199	0xbdea41e5	-0.1143835
200	0xbd971363	-0.073767446
201	0x3c07d990	0.008291617
202	0xbcf2931c	-0.029611163
203	0x3cd89590	0.026438504
204	0x3c5f2fb0	0.013622209
205	0xbd3b40de	-0.04571616
206	0x3d67ed00	0.056622505
207	0x3dc9a386	0.09845643
208	0xbd4c24a0	-0.049839616
209	0x3cb2cd60	0.021826446
210	0x3d003890	0.031303942
211	0x3dd53fca	0.104125574
212	0xbd9cddf3	-0.07659521
213	0xbd870c18	-0.065941036
214	0xbdfdb329	-0.12387688
215	0xbd9589dd	-0.07301686
216	0xbd91f20c	-0.07126245
217	0xbd9c0f00	-0.076200485
218	0x3db10792	0.08644022
219	0xbd2620a8	-0.040558487
220	0x3dbd4f48	0.09243637
221	0x3d401ca4	0.046902314
222	0x3d84c690	0.06483185
223	0xbdc9ac97	-0.09847372
224	0x3ca554e8	0.020182088
225	0xbdb873c4	-0.090064555
226	0xbdc5e350	-0.09662497
227	0xbdce74b2	-0.100808516
228	0xbde1c839	-0.110245176
229	0x3d12c63c	0.035833582
230	0x3caa40d8	0.020782873
231	0x3dc603fe	0.0966873
232	0x3da291b0	0.07937944
233	0x3dc28dfa	0.09499736
234	0xbd293b80	-0.04131651
235	0xbc1dc9f8	-0.009630673
236	0xbdb11e25	-0.08648328
237	0xbdc04b29	-0.09389336
238	0x3d7df41c	0.06200038
239	0xbd3634b0	-0.04448384
240	0xbd8262af	-0.06366479
241	0xbd3ea588	-0.04654458
242	0x3dee607a	0.11639495
243	0xbcbfbb7c	-0.02340483
244	0xbdceac44	-0.10091451
245	0x3df7d430	0.121010184
246	0xbddc77ae	-0.107650146
247	0xbd823d30	-0.06359327
248	0xbcfd5454	-0.030924
249	0xbd995e4e	-0.0748869
250	0xbdb10615	-0.08643738
251	0x3d37799c	0.04479371
252	0xbdc23dfb	-0.09484478
253	0x3cd49838	0.02595149
254	0x3df061ae	0.11737381
255	0x3baddbc0	0.0053057373

fc4.bias f4 [130]
0	0xbb909b14	-0.004413018
1	0xbdbfdc18	-0.093681514
2	0x3b93c420	0.004509464
3	0x3be90940	0.0071116984
4	0xbd469e87	-0.048491027
5	0xbd8c0b1d	-0.06838057
6	0x3d810c4f	0.06301176
7	0x3dcf749f	0.101296656
8	0xbd6c7e34	-0.057737544
9	0x3da91241	0.08255435
10	0x3d22737e	0.039660923
11	0xbdad0c41	-0.08449603
12	0xbe068f4c	-0.13140601
13	0xbdbf4dd6	-0.09341018
14	0x3aa42600	0.0012523532
15	0xbd1b5172	-0.03791947
16	0xbdec68d5	-0.115434326
17	0xbd03c542	-0.03217054
18	0xbda3eab9	-0.08003754
19	0xbddb630c	-0.10712251
20	0x3c1cde05	0.009574418
21	0xbc3b40e5	-0.011429046
22	0x3ac893f8	0.0015302887
23	0x3b2b25a2	0.002611496
24	0xbda71843	-0.081589244
25	0xbdd7c1e0	-0.105350256
26	0xbcab8a87	-0.020940078
27	0x3dbfe4c0	0.093698025
28	0xbd628c2a	-0.055309452
29	0x3902c33f	0.00012470501
30	0x3d7edf7d	0.062224854
31	0xbd6d7896	-0.057976328
32	0x3e046ccb	0.12932126
33	0xbc4eca14	-0.012621421
34	0xbde5d616	-0.11222474
35	0xbcae8a0b	-0.021306058
36	0xbd6acdde	-0.057325236
37	0x3de2417b	0.11047646
38	0xbdc031c8	-0.09384495
39	0xbc7930c1	-0.015209378
40	0xbd9ae923	-0.075639986
41	0x3d9b3c75	0.07579891
42	0x3b1fa959	0.0024362414
43	0x3d5a1c6b	0.053249758
44	0x3da47207	0.080295615
45	0xbde6dcaa	-0.11272557
46	0xbd0a852f	-0.03381842
47	0xbdcba041	-0.099426754
48	0x3e08b14e	0.13348886
49	0x3d8b9fa7	0.06817561
50	0x3b5678ca	0.0032725804
51	0xbd0d833b	-0.03454898
52	0x3ccc34e3	0.024927562
53	0x3d0e3fd4	0.03472884
54	0x3cabf635	0.020991424
55	0xbdb1c6e9	-0.08680517
56	0xbd4e7a70	-0.050409734
57	0xbbe23d04	-0.0069042463
58	0x3d90ad23	0.07064273
59	0xbd02738c	-0.031848475
60	0xbda0d811	-0.078537114
61	0xbd92c36b	-0.07166179
62	0x3da781e1	0.08179069
63	0xbc3a9efd	-0.011390445
64	0xbd1136b6	-0.035452567
65	0x3d284b40	0.04108739
66	0xbdc520b0	-0.09625375
67	0xbdf1a880	-0.11799717
68	0x3d9cb2af	0.07651269
69	0x3d8edb87	0.06975465
70	0x3d7ab7b7	0.06121036
71	0x3e22115a	0.15826932
72	0xbdbdf3b4	-0.09274998
73	0xbdb25243	-0.087070964
74	0x3cd42512	0.025896583
75	0xbddd9287	-0.108189635
76	0x3e075685	0.13216598
77	0x3ca3f235	0.020012954
78	0xbda9e80f	-0.08296215
79	0xbdb88f63	-0.09011724
80	0x3c6a11ee	0.014286501
81	0xbd032ab2	-0.03202314
82	0xbdaf09b5	-0.08546773
83	0x3c788d89	0.015170463
84	0x3deb2bc5	0.11482958
85	0xbdb3e4bd	-0.08783863
86	0x3dd9404c	0.10607967
87	0xbd9182c5	-0.071050204
88	0x3cf40bde	0.029790815
89	0xbdb32e25	-0.08749036
90	0x3d9d2728	0.07673484
91	0xbdd932bf	-0.10605382
92	0x3c566aec	0.013087016
93	0x3dfab776	0.12242024
94	0xbc05e2c2	-0.008171739
95	0x3e0a832a	0.13526598
96	0xbcbf54c0	-0.023355842
97	0x3d727eeb	0.05920307
98	0x39654f04	0.00021868577
99	0xba115665	-0.0005544185
100	0xbcf9f8f2	-0.030514214
101	0x3ce06180	0.027390242
102	0x3d3c9a1b	0.046045404
103	0x3d2ba04f	0.04190093
104	0x3c276a89	0.010218271
105	0x3ca3e20b	0.020005247
106	0x3d1b2342	0.03787542
107	0x3d834072	0.06408776
108	0x3c977d5c	0.018492393
109	0xbde33064	-0.11093214
110	0xbc957135	-0.018242458
111	0xbd83faee	-0.064443454
112	0xbdfba226	-0.12286787
113	0xbbc44b0b	-0.005990391
114	0xbd2532af	-0.04033154
115	0x3e022c4c	0.1271221
116	0xbd81cc4a	-0.06337793
117	0x3de02474	0.10944453
118	0xbd0a97ee	-0.033836298
119	0xbda0c4db	-0.07850047
120	0xbda229dc	-0.0791814
121	0x3d4acc49	0.049511228
122	0xba615849	-0.00085962244
123	0xbda7a7c0	-0.08186293
124	0xbd995e52	-0.07488693
125	0x3d9660f6	0.073427126
126	0xbdd94bde	-0.10610174
127	0x3a46cac2	0.0007583314
128	0x3c91f820	0.01781851
129	0x3dd6c420	0.104866266

fc5.weight f4 [8, 130]
0	0xbbd004e0	-0.0063482374
1	0xbcc4c090	-0.024017602
2	0x3d9b80f5	0.07592956
3	0xbc93ec4c	-0.018057011
4	0xbd1d6570	-0.038426816
5	0x3d0538fc	0.032525048
6	0xbd396f1b	-0.045271974
7	0xbb10481d	-0.002201564
8	0x3d56f95a	0.052483894
9	0x3d400b2a	0.046885647
10	0x3dcc11f8	0.09964365
11	0xbc13594d	-0.008993459
12	0xbbf49901	-0.0074645285
13	0xbd763d91	-0.060117308
14	0x3d225a6e	0.03963702
15	0x3d9febfd	0.07808683
16	0x3bf3f610	0.0074451044
17	0xbca59324	-0.020211764
18	0x3d909574	0.07059756
19	0x3da8885f	0.08229136
20	0xbd863d4d	-0.06554661
21	0x3d46fa80	0.04857874
22	0xbc60da4f	-0.013723924
23	0xbd0c7ef7	-0.03430077
24	0x3d85b9cf	0.06529581
25	0xbd6b4e00	-0.057447433
26	0x3d9972d7	0.07492607
27	0xbcbba494	-0.022905625
28	0xbca60d94	-0.020270146
29	0xbb8220e0	-0.003971204
30	0xbd89ddf7	-0.067317896
31	0x3c3d9747	0.011571712
32	0xbc6cbaa3	-0.014448795
33	0x3d369242	0.044573076
34	0xbcb168b0	-0.021656364
35	0x3cdeb0e0	0.02718395
36	0xbd566e42	-0.052351244
37	0xbd3217a5	-0.04347958
38	0x3ca21e80	0.019789934
39	0xbdb37943	-0.08763363
40	0xbdad76d4	-0.0846993
41	0xbbf61cb2	-0.007510745
42	0x3d9d2289	0.07672603
43	0xbd8d1da9	-0.06890423
44	0xbbeae320	-0.0071681887
45	0xbd8c8d3a	-0.06862874
46	0x3d924de0	0.0714376
47	0xbcfa9a66	-0.030591201
48	0xbd16c9de	-0.03681361
49	0xbd8380ee	-0.06421076
50	0x3d02b32b	0.03190915
51	0xbd344e72	-0.044020124
52	0x3d152ec1	0.03642154
53	0x3c26a7f8	0.010171883
54	0x3af92440	0.0019007996
55	0xbd64ebb7	-0.055888858
56	0x3c9d6e38	0.019217595
57	0xbcc62ee4	-0.024192281
58	0xbdad469e	-0.08460735
59	0xbd09e361	-0.03366411
60	0x3cb02724	0.021503039
61	0xbd707a03	-0.05871011
62	0xbd1fc5d1	-0.03900701
63	0xbcdfde80	-0.027327776
64	0x3c8c4f80	0.017127752
65	0x3e0856bc	0.13314337
66	0x3d92d2bc	0.07169101
67	0x3d71cb46	0.059031747
68	0x3d0439e4	0.03228177
69	0x3d99fc11	0.07518781
70	0xbc997378	-0.018731818
71	0xbcb225b7	-0.0217465
72	0x3d5c8f06	0.053847335
73	0xbd284180	-0.04107809
74	0x3c42e7a0	0.011896044
75	0xbd33116d	-0.04371779
76	0x3d9989b5	0.07496969
77	0x3da0c8af	0.07850777
78	0x3d25782a	0.0403978
79	0x3dd69128	0.10476905
80	0x3d93fcad	0.072259285
81	0x3db33c14	0.08751693
82	0x3d074d9d	0.033033002
83	0xba008b00	-0.0004903525
84	0xbc0da828	-0.008646049
85	0x3c9c158d	0.019053245
86	0x3cbb5fa9	0.022872763
87	0x3d669816	0.056297384
88	0x3d707f86	0.058715366
89	0x3d49fc5a	0.049312927
90	0x3c3446da	0.01100322
91	0xbcdf2102	-0.027237419
92	0x3d8bf451	0.06833709
93	0xbd090631	-0.03345317
94	0xbd44597e	-0.04793691
95	0x3c958f36	0.018256765
96	0x3db7dc9c	0.08977625
97	0xbd3ebc6a	-0.046566404
98	0x3d895ccb	0.06707152
99	0x3daa5a4e	0.083180055
100	0x3d72977e	0.059226505
101	0xbd247b31	-0.040156547
102	0xbd038070	-0.03210491
103	0xbd900058	-0.070313156
104	0x3dad279d	0.08454821
105	0x3cc10018	0.023559615
106	0xbce4a640	-0.027911305
107	0x3cdbb794	0.026820935
108	0xbc364ee8	-0.011127211
109	0xbd216be7	-0.039409544
110	0x3cde9b44	0.027173646
111	0x3ceaeb30	0.0286766
112	0x3d7f5346	0.062335275
113	0xbc21cbf0	-0.009875283
114	0x3db96286	0.09051995
115	0xbd1a04b1	-0.03760213
116	0x3d8d01c0	0.068850994
117	0xbda930fc	-0.08261296
118	0x3b9b35f5	0.004736657
119	0x3c58ccf3	0.013232457
120	0x3d370389	0.044681106
121	0x3cc51116	0.024055999
122	0xbdb21b8e	-0.08696662
123	0x3dc24f07	0.094877295
124	0xbd5490cd	-0.051895905
125	0x3b176820	0.0023102835
126	0xbc7e90e0	-0.015537471
127	0xbc8351fc	-0.016030304
128	0x3cc793ac	0.024362408
129	0xbbbdc093	-0.005790779
130	0xbbe002c2	-0.0068362663
131	0x3d81a4e3	0.06330278
132	0x3c893bfc	0.016752236
133	0xbcac432c	-0.021028124
134	0x3b7c2926	0.0038476675
135	0xbcde5a69	-0.02714272
136	0x3daf52db	0.08560725
137	0x3dbd72e3	0.092504285
138	0xbcc60196	-0.024170678
139	0x3c31eaba	0.010859186
140	0xbc8f66f8	-0.017505154
141	0x3dcf5fa8	0.10125667
142	0xbca36a90	-0.019948274
143	0xbdafac3d	-0.08577774
144	0xbdadbe1e	-0.084835276
145	0x3d7dbbd2	0.061946698
146	0xbda09767	-0.07841378
147	0x3c00c548	0.0078595355
148	0xbcef42a3	-0.02920658
149	0x3d9f4f69	0.07778818
150	0x3c91cb9b	0.017797282
151	0xbd3fd48c	-0.04683356
152	0x3d3093b0	0.043109596
153	0x3d73afcb	0.05949382
154	0xbd5a0780	-0.05322981
155	0xbd4311a7	-0.047624256
156	0x3d892859	0.06697149
157	0x3bd82307	0.0065959725
158	0xbb4ac580	-0.0030940473
159	0xbb03b16d	-0.0020094768
160	0xbd2ba645	-0.041906614
161	0x3d62831e	0.055300824
162	0x3de5a714	0.11213508
163	0xbc76da7a	-0.015066737
164	0xbcec8ba8	-0.028875187
165	0xbc88c3a9	-0.01669486
166	0x3d3a04a6	0.04541459
167	0xbd944e2b	-0.07241472
168	0xbda5d6a8	-0.08097583
169	0xbd69a85a	-0.05704532
170	0x3d65852e	0.056035213
171	0x3ddaa7e8	0.10676557
172	0xbd19b364	-0.037524596
173	0x3daff3f9	0.08591456
174	0xbd7c55d5	-0.061605293
175	0xbd9e8b9d	-0.07741473
176	0x3d8b74e1	0.06809402
177	0x3d10864c	0.035284325
178	0x3d4b35d6	0.04961189
179	0x3dad1344	0.0845094
180	0x3da93958	0.082628906
181	0x3d8cb8fb	0.0687122
182	0x3de313eb	0.110877834
183	0xbcca03b2	-0.024659965
184	0xbd084dd6	-0.033277355
185	0xbc11efa1	-0.00890723
186	0xbd1f8507	-0.038945224
187	0x3d39a9a7	0.04532781
188	0xbd3e6778	-0.046485394
189	0x3d3c0008	0.045898467
190	0x3da439bf	0.08018827
191	0xbd65c723	-0.056098115
192	0x3dd25986	0.102709815
193	0xbda77dc6	-0.08178286
194	0x3cad1af0	0.021131009
195	0x3deea58e	0.11652671
196	0xbd7aa57b	-0.06119297
197	0xbcccb640	-0.024989247
198	0xbce982e7	-0.028504802
199	0xbced54b1	-0.028971048
200	0x3d924822	0.071426645
201	0x3e06a32a	0.1314818
202	0xbcca8340	-0.024720788
203	0xbd713bdb	-0.058894973
204	0xbbe1fd61	-0.00689666
205	0x3cfb64dc	0.030687742
206	0xbd041fea	-0.032256998
207	0x3ca4fdd1	0.02014056
208	0xbd66768d	-0.056265403
209	0x3d5ea3a3	0.054355275
210	0xbced9d6d	-0.02900573
211	0x3da2f3a0	0.07956624
212	0x3daad4f3	0.08341398
213	0x3ce1c9b8	0.027562007
214	0x3d91b176	0.07113926
215	0x3d3ee3c0	0.046603918
216	0x3ded3b18	0.11583537
217	0xbd47a229	-0.048738632
218	0xbd342d64	-0.0439886
219	0x3d8d6fcd	0.0690609
220	0x3d40d0e1	0.047074202
221	0xbd8796cc	-0.06620559
222	0x3d099929	0.03359333
223	0x3dbb3236	0.09140436
224	0x3db88391	0.09009469
225	0xbc0ed8ed	-0.008718711
226	0x3dd3ab6b	0.1033543
227	0x3dc6798c	0.09691152
228	0x3d9b0fe6	0.07571392
229	0x3c90549c	0.01761847
230	0x3da7a8ee	0.08186518
231	0xbd1d3fff	-0.03839111
232	0x3c2342fe	0.009964703
233	0xbc32e50d	-0.010918868
234	0xbc4d4df4	-0.0125307925
235	0x3c43243a	0.011910493
236	0x3d8bfe70	0.068356395
237	0x3bf2fb8c	0.0074152406
238	0x3dc05c03	0.0939255
239	0xbce975d2	-0.028498564
240	0xbc9cc541	-0.019137027
241	0x3d074db2	0.03303308
242	0xbcb85e95	-0.022506038
243	0xbcd56c7f	-0.026052712
244	0x3c12825c	0.008942213
245	0x3ca3b794	0.019984998
246	0x3ad8ad7a	0.0016531192
247	0xbd3175b4	-0.04332514
248	0x3d01a652	0.031652756
249	0x3c50d7f5	0.012746801
250	0xbd6807f5	-0.056648213
251	0x3d4195ee	0.047262125
252	0xbd4e8ef3	-0.050429296
253	0xbb45a3d6	-0.0030157468
254	0x3d91586d	0.07096944
255	0x3d0e40f8	0.034729928

fc5.bias f4 [8]
0	0xbcc845d6	-0.024447363
1	0x3d87d6df	0.0663278
2	0x3d723c0e	0.059139304
3	0x3dac1fbe	0.08404492
4	0xbd74b59a	-0.0597435
5	0x3dc647c4	0.09681657
6	0xbd0d06b3	-0.034430217
7	0x3c93b98c	0.018032812
